code/model.ckpt (torch, 121214 bytes, 14 tensors)

layer1.0.weight f4 [16, 1, 5, 5]
0.1212862 0.19581811 0.23102781 0.4244273 -0.10437883 -0.47609702 -0.13804 0.062446095
0.6109003 -0.49139202 -0.8494522 0.06362031 0.851012 0.40182132 -0.49754426 -0.31325278
0.62803715 0.8335428 -0.17062747 -0.76509225 0.23014647 0.43736437 -0.24994594 -0.3792684
-0.62160665 -0.05612028 -0.17117853 -0.05327613 0.05435451 0.4513281 -0.37518167 -0.12878823
-0.07810693 -0.08656039 -0.33036938 -0.0838235 0.095542066 0.31569603 -0.32670528 -1.1321145
-0.3580792 -0.20979096 0.96991014 0.72328085 -0.7642745 -0.6187382 -0.37028655 0.21797308
0.734924 0.054202143 0.59341836 -0.21663463 -0.6669389 -0.9894999 -0.09973902 0.27934238
0.12512818 -0.71853524 -0.36282006 0.40647322 0.23661515 1.1672207 0.64753246 0.68685436
0.28466648 -0.28178838 -0.13678746 0.5793468 -0.2634227 -0.39762008 -0.5610852 0.117917925
0.21979955 0.061788507 0.08334145 -0.30557293 0.032863673 0.39427486 0.3568935 0.16324614
0.70711 0.4051183 0.17801312 0.9919596 0.15235238 0.30403727 -0.005941858 -0.34377128
0.17609806 0.43840206 -0.3380627 -0.91574305 -0.43424535 0.2664889 0.70030457 -0.65406066
-0.4248668 0.4052926 0.9361426 0.61637187 -0.19695297 0.27635017 0.09708446 0.15097892
0.2196061 0.24547735 0.47256535 0.4266596 0.16527967 -0.762042 0.6081194 0.29690787
-0.5318491 -1.2901077 -0.68689084 -0.45147225 -0.86563796 -1.3336372 -0.11530943 0.25250208
-0.9823765 -0.4062363 0.3457325 0.6471602 0.32822737 -0.40694222 -0.9730298 -0.45473188
-0.19802791 -0.34628177 0.25445604 -0.71978366 -0.47901237 -0.4241595 -0.08142442 0.5393242
-0.17528665 -0.55325687 -0.61238277 0.14704168 0.683927 0.10689151 -0.40180138 -0.29701865
0.13864712 0.7985711 0.2818952 -0.090811 -0.24386851 -0.15455511 0.05845402 -0.2650547
0.12568891 0.8970352 0.7294689 -0.21108416 -0.008685041 0.26278344 0.1689099 -0.4169928
-0.02303981 0.3142092 0.32215995 -0.50081223 -0.957228 0.3669393 0.541015 -0.32056156
-0.93451834 -0.12526062 0.26118368 -0.20400995 -0.052126016 0.066971384 0.8569123 -0.073346496
0.0018407127 0.56149423 0.5772363 0.42157865 -0.8040581 -1.0667425 -0.44942644 -0.18294592
0.32789335 -0.02582482 -0.5353377 -1.0068601 -0.9587854 -0.29095292 0.5457062 0.51146513
0.03170429 -0.33037284 -0.49240324 -0.17255159 0.3506866 0.30666137 0.107122764 0.05316787
-0.015623824 0.2294334 0.55226696 0.99059105 1.0714626 0.23594204 0.2637312 -0.10350359
0.32300326 0.5970717 -0.31474838 -0.14155643 0.24876194 0.11044566 0.6156988 -0.3732673
-0.19545664 -0.608127 -0.36826682 0.00810184 -0.55869144 -0.58181757 -0.61662817 -0.677567
0.13178283 0.35073915 -0.007965064 -0.41115916 -0.49860504 0.107146904 -0.09913892 -0.16319923
-0.80316967 -0.92224973 -0.8250393 -0.08941821 -0.25854617 0.46426666 0.41741332 -0.10718106
0.55901176 0.15708357 0.7726352 0.64730567 0.32282427 0.89284724 0.07330096 -0.6293364
-0.12243887 0.20803198 -0.050960727 0.4280335 -0.06621189 -0.19743831 -0.9057105 0.26861244
00000000: e664 f83d 8b84 483e 8e92 6c3e 894e d93e
00000010: 91c4 d5bd fdc2 f3be 5c5a 0dbe 7ac7 7f3d
00000020: f663 1c3f bc97 fbbe b375 59bf 5d4b 823d
00000030: ecdb 593f 86bb cd3e 1fbe febe ab62 a0be
00000040: 0bc7 203f 1063 553f f8b8 2ebe 16dd 43bf
00000050: 84ab 6b3e 39ee df3e d4f1 7fbe 782f c2be
00000060: 9d21 1fbf 61de 65bd 6d49 2fbe 1238 5abd
00000070: d6a2 5e3d 7a14 e73e d017 c0be 10e1 03be
00000080: 87f6 9fbd 9346 b1bd 2d26 a9be a8ab abbd
00000090: 8fab c33d e9a2 a13e ea45 a7be 21e9 90bf
000000a0: 2856 b7be 71d3 56be 084c 783f ef28 393f
000000b0: 7ea7 43bf a065 1ebf 3396 bdbe 5634 5f3e
000000c0: fb23 3c3f 1103 5e3d 44ea 173f 78d5 5dbe
000000d0: 82bc 2abf de4f 7dbf f943 ccbd f705 8f3e
000000e0: 9a21 003e edf1 37bf 8dc3 b9be 421d d03e
000000f0: 3e4b 723e 7d67 953f b0c4 253f b0d5 2f3f
00000100: cebf 913e 9146 90be 0312 0cbe 1250 143f
00000110: 57df 86be dc94 cbbe 48a3 0fbf f47e f13d
00000120: 2213 613e f215 7d3d ecae aa3d 0e74 9cbe
00000130: 0f9c 063d 65de c93e bfba b63e ff29 273e
00000140: 2905 353f aa6b cf3e 1249 363e 10f1 7d3f
00000150: 4302 1c3e c6aa 9b3e ebb3 c2bb ca02 b0be
00000160: 0d53 343e 3c76 e03e 8e16 adbe 236e 6abf
00000170: 6855 debe 3c71 883e 2947 333f 8570 27bf
00000180: 2488 d9be 8382 cf3e 0ba7 6f3f 8cca 1d3f
00000190: 0aae 49be c57d 8d3e 38d4 c63d 389a 1a3e
000001a0: 6ce0 603e 6a5e 7b3e 16f4 f13e 2173 da3e
000001b0: 133f 293e 2f15 43bf b7ad 1b3f 4f04 983e
000001c0: 4327 08bf 4022 a5bf 14d8 2fbf 5f27 e7be
000001d0: 739a 5dbf a0b4 aabf 5a27 ecbd f447 813e
000001e0: 077d 7bbf 34fe cfbe da03 b13e 4aac 253f
000001f0: 6b0d a83e bb5a d0be 7b18 79bf 9ed2 e8be
00000200: d4c7 4abe d84b b1be 1048 823e be43 38bf
00000210: 1c41 f5be 6f2b d9be d9c1 a6bd 2711 0a3f
00000220: 587e 33be 3ea2 0dbf 1ec5 1cbf 1892 163e
00000230: d715 2f3f f0e9 da3d e9b8 cdbe d412 98be
00000240: 83f9 0d3e 286f 4c3f 9154 903e 1efb b9bd
00000250: abb8 79be b243 1ebe 7c6d 6f3d 40b5 87be
00000260: 98b4 003e 19a4 653f 79be 3a3f 7226 58be
00000270: b44b 0ebc 8d8b 863e b8f6 2c3e 1580 d5be
00000280: fcbd bcbc 07e0 a03e 26f2 a43e 3b35 00bf
00000290: e50c 75bf 78df bb3e f67f 0a3f a520 a4be
000002a0: 983c 6fbf 5244 00be deb9 853e fce7 50be
000002b0: 1782 55bd 4b28 893d 9b5e 5b3f b036 96bd
000002c0: 1244 f13a 16be 0f3f c2c5 133f 28d9 d73e
000002d0: c0d6 4dbf 058b 88bf 391b e6be 2d56 3bbe
000002e0: a3e1 a73e 938e d3bc e40b 09bf cbe0 80bf
000002f0: f672 75bf c8f7 94be 67b3 0b3f 61ef 023f
00000300: 5cdc 013d a126 a9be 471c fcbe 5db1 30be
00000310: 328d b33e b802 9d3e 2e63 db3d 8dc6 593d
00000320: 11fb 7fbc 97f0 6a3e 5e61 0d3f 6097 7d3f
00000330: b025 893f ca9a 713e c707 873e b1f9 d3bd
00000340: af60 a53e b1d9 183f b326 a1be 2bf4 10be
00000350: 73bb 7e3e 5631 e23d 709e 1d3f e41c bfbe
00000360: c925 48be 36ae 1bbf 788d bcbe 94bd 043c
00000370: 6706 0fbf fff1 14bf 58db 1dbf 0875 2dbf
00000380: 14f2 063e 1594 b33e e67f 02bc 7483 d2be
00000390: 2949 ffbe d66f db3d 5909 cbbd b31d 27be
000003a0: 879c 4dbf 8f18 6cbf c735 53bf e520 b7bd
000003b0: 2a60 84be 5cb4 ed3e 33b7 d53e be81 dbbd
000003c0: 651b 0f3f 84da 203e 6ccb 453f d3b5 253f
000003d0: 3949 a53e a391 643f d01e 963d 311c 21bf
000003e0: 3bc1 fabd 5606 553e 32bc 50bd 3527 db3e
000003f0: 199a 87bd 452d 4abe a5dc 67bf 9287 893e

layer1.0.bias f4 [16]
-0.1562523 -0.18921244 -0.12509093 -0.26477924 0.32350397 0.26089942 0.51180345 0.21245888
-0.25828293 -0.058705255 0.43420118 0.44372222 -0.6588222 -0.2602425 -0.37370807 0.094166726
00000000: 9a00 20be e8c0 41be d617 00be 2591 87be
00000010: 50a2 a53e 9c94 853e 8d05 033f d28e 593e
00000020: a93d 84be ec74 70bd 9e4f de3e 8f2f e33e
00000030: 92a8 28bf 813e 85be aa56 bfbe 7cda c03d

layer1.1.weight f4 [16]
0.7978694 1.2042751 1.0415877 0.85886085 2.318635 1.6460998 0.9078303 1.9459479
1.0157189 0.97830737 0.8122418 1.8797412 0.74022985 1.3915311 1.5153997 0.7574674
00000000: 2b41 4c3f b025 9a3f bf52 853f 4ede 5b3f
00000010: 8464 1440 66b3 d23f 9167 683f d214 f93f
00000020: 1403 823f 5a72 7a3f 14ef 4f3f 5c9b f03f
00000030: b47f 3d3f b11d b23f 9ef8 c13f 62e9 413f

layer1.1.bias f4 [16]
-0.9068386 -0.6957509 -0.67469364 -1.4326692 0.3070979 -0.012509176 -0.736222 -0.016832102
0.012059453 -0.18202256 -0.35836792 0.18359043 -0.6854424 -0.7988254 0.15935788 -0.9128541
00000000: 9326 68bf bb1c 32bf b9b8 2cbf b461 b7bf
00000010: f03b 9d3e 49f3 4cbc 0c79 3cbf 7ae3 89bc
00000020: 0395 453c 1f64 3abe 007c b7be 21ff 3b3e
00000030: 2779 2fbf d27f 4cbf b62e 233e ceb0 69bf

layer1.1.running_mean f4 [16]
-0.14978199 -0.38139313 -0.023999592 0.21657458 -0.06776351 -0.20294434 0.63192296 -0.117803305
-0.1549876 -0.05430991 0.16452931 0.050345805 -0.62917584 -0.24871993 -0.97264004 0.792486
00000000: 7360 19be f645 c3be cb9a c4bc bac5 5d3e
00000010: 98c7 8abd a4d0 4fbe b4c5 213f dc42 f1bd
00000020: 12b5 1ebe 1174 5ebd 5f7a 283e 6737 4e3d
00000030: ab11 21bf 70b0 7ebe f0fe 78bf 5de0 4a3f

layer1.1.running_var f4 [16]
0.6011797 0.3284628 0.38878512 1.2302 1.2970158 1.2420217 0.398601 0.7947952
1.2294782 0.5855039 0.49819627 1.2102414 0.55721503 0.46942395 2.4675355 1.882098
00000000: eae6 193f 472c a83e d80e c73e 3277 9d3f
00000010: 9d04 a63f 91fa 9e3f 6e15 cc3e b377 4b3f
00000020: 8b5f 9d3f 95e3 153f 9513 ff3e 31e9 9a3f
00000030: a5a5 0e3f 5658 f03e 1aec 1d40 96e8 f03f

layer2.0.weight f4 [32, 16, 5, 5]
-0.3726265 0.38705394 1.1642609 0.20775323 -0.0059229448 -0.9204547 0.45789993 0.47781003
0.31931373 -0.08111366 -0.6852631 0.13339727 0.47848728 -0.5743427 -0.37982875 -0.59871876
0.49564892 0.13996972 -0.7369501 -0.50773627 0.27173513 0.5382216 0.20836101 -0.06301534
-0.076356135 -1.2903881 0.21630667 1.0981236 0.19089018 -0.9576038 -0.60262406 0.5827711
0.816495 0.49942473 -1.3839062 -0.37884027 0.3248638 0.64814067 1.2024878 0.17882706
-0.23301278 -0.15060902 -0.0123909665 -0.047066458 -0.020668235 -0.35434213 -1.0037304 -0.48211643
-0.6728282 0.5077795 -0.5165945 -0.30564636 0.32312497 0.36680844 -0.2571768 -0.1277514
-0.5786487 0.07213016 0.49970925 -0.48906156 0.37206495 0.30910155 -0.03779169 0.5876541
0.36030418 0.45348924 -0.23870237 -0.09419034 0.85952365 0.7342713 0.16479245 -0.8011768
-0.44882485 -0.07970463 -0.099062346 -0.08896644 1.205999 -0.056507625 -0.72409624 -0.5619981
0.35627592 0.025487134 -0.18422934 -0.535384 -0.3972642 -0.18926588 0.48909956 0.13328442
0.4486291 -0.7236778 -0.09793302 0.8360708 0.62015355 0.36972377 0.30340618 -0.20802405
0.6468109 0.5219912 1.0646586 1.192706 0.12257899 -0.47192085 -1.0520686 -0.100178316
0.46020195 -0.8331551 -1.1122825 -0.4442156 -0.6206406 -0.71929574 -1.0753901 -0.26633114
-0.81767726 -0.75860006 -0.62488216 0.31370443 0.052376255 -0.463278 -0.8667362 -0.26744363
-0.005842652 -0.22775216 -0.2473539 -0.17459515 -0.3798265 1.132639 -0.34656394 0.04806592
-0.10545621 0.15562376 1.1364893 -0.48140562 -0.95134455 0.04952498 0.13795753 0.51828134
-0.28406498 -0.5750728 1.1421576 0.20049477 -0.051658258 -0.13005246 -0.66716063 0.9395657
-0.26904857 -0.6763788 -0.7293478 -0.93597716 0.24487571 -0.2405201 0.66023314 -0.6741131
0.068743534 0.2285432 0.8320027 -0.90373516 -0.9427987 -0.071608625 0.20725285 0.43933195
-0.32656613 -0.8884165 -0.64033383 0.5345951 0.17326833 -0.2726246 -0.4040167 -0.22491732
-1.624254 -0.42781603 0.5393186 0.10016922 0.1169822 0.1895633 0.22161092 0.41543588
-0.48943597 -1.6407312 -0.12064416 0.4673441 0.17612058 0.27863774 -0.92028546 -0.6085082
-0.3480517 0.62224823 0.667777 0.009252001 -0.01610227 0.50401497 -0.19905621 -0.22999828
0.2934164 0.28634652 -0.42015737 -0.5162649 -0.41244602 -0.13856815 -0.19417942 0.40764707
0.66457033 1.1116848 0.36330998 -0.4162024 0.29716516 0.06793508 0.5870586 0.049051408
-0.35507852 -0.10919881 -0.15297966 0.38828468 0.15614626 -0.9187523 -0.8331465 -0.2634378
0.24318641 0.27540112 -0.11513741 -0.27007782 -0.7034239 -0.5287125 -0.13101368 0.51306915
0.56289047 -0.2187241 -0.61931825 0.011187526 0.69457823 0.5447798 -0.052724205 -0.6402454
-0.5836695 -0.093257576 -0.24527799 0.6379761 -0.1622884 -0.2360286 0.5412753 0.42076468
0.09129396 -0.4473739 -0.16017151 0.8014017 0.730069 0.3017198 -0.1214362 0.029093701
0.24050215 -0.39352855 -1.1906878 -0.31014687 1.2436777 -0.13638729 -0.011177213 -0.6660447
00000000: e7c8 bebe ef2b c63e 8006 953f 43bd 543e
00000010: 4315 c2bb eba2 6bbf dc71 ea3e 84a3 f43e
00000020: 177d a33e eb1e a6bd 676d 2fbf 4b99 083e
00000030: 49fc f43e 2008 13bf ea78 c2be a245 19bf
00000040: b2c5 fd3e 3954 0f3e c3a8 3cbf 01fb 01bf
00000050: de20 8b3e e4c8 093f 975c 553e 300e 81bd
00000060: 9b60 9cbd 702b a5bf 7f7f 5d3e 508f 8c3f
00000070: b778 433e 8625 75bf 9245 1abf 7d30 153f
00000080: d105 513f 99b4 ff3e d723 b1bf 5af7 c1be
00000090: 8c54 a63e 8cec 253f 1feb 993f 711e 373e
000000a0: e79a 6ebe 4039 1abe 7b03 4bbc c2c8 40bd
000000b0: 6e50 a9bc 556c b5be 3d7a 80bf f7d7 f6be
000000c0: 783e 2cbf d6fd 013f 8a3f 04bf ae7d 9cbe
000000d0: a370 a53e 51ce bb3e adac 83be 43d1 02be
000000e0: 5222 14bf fab8 933d e4d9 ff3e 4766 fabe
000000f0: 4c7f be3e 8f42 9e3e 76cb 1abd 8070 163f
00000100: ca79 b83e be2f e83e 656e 74be dde6 c0bd
00000110: be09 5c3f 34f9 3b3f 5abf 283e ec19 4dbf
00000120: 5fcc e5be 2e3c a3bd 33e1 cabd 0934 b6bd
00000130: 2d5e 9a3f 8a74 67bd 5f5e 39bf 1cdf 0fbf
00000140: cc69 b63e 65ca d03c 9ea6 3cbe ed0e 09bf
00000150: 3766 cbbe eace 41be 426b fa3e b67b 083e
00000160: b7b2 e53e f342 39bf 1b91 c8bd bc08 563f
00000170: 62c2 1e3f 6f4c bd3e 0e58 9b3e 4204 55be
00000180: 6695 253f 37a1 053f bc46 883f 97aa 983f
00000190: b20a fb3d 9c9f f1be 2faa 86bf 4a2a cdbd
000001a0: 979f eb3e a749 55bf 465f 8ebf 3a70 e3be
000001b0: 4de2 1ebf c423 38bf 62a6 89bf 8e5c 88be
000001c0: 4c53 51bf 9d33 42bf 47f8 1fbf de9d a03e
000001d0: 7c88 563d c632 edbe 6ce2 5dbf 5fee 88be
000001e0: b873 bfbb dd37 69be 574a 7dbe 12c9 32be
000001f0: 9e78 c2be 51fa 903f d470 b1be c5e0 443d
00000200: 6df9 d7bd d65b 1f3e 7b78 913f cc7a f6be
00000210: 518b 73bf b5da 4a3d bd44 0d3e 16ae 043f
00000220: f770 91be f937 13bf 3832 923f 804e 4d3e
00000230: 9c97 53bd 792c 05be 0acb 2abf 6187 703f
00000240: bcc0 89be 2927 2dbf 8ab6 3abf 339c 6fbf
00000250: b3c0 7a3e e74a 76be 0a05 293f ad92 2cbf
00000260: 69c9 8c3d 3b07 6a3e 21fe 543f 305b 67bf
00000270: 415b 71bf 8ba7 92bd 173a 543e 1ef0 e03e
00000280: ad33 a7be 446f 63bf ebec 23bf 39db 083f
00000290: 416d 313e 7495 8bbe 47db cebe ba50 66be
000002a0: 8ee7 cfbf b40a dbbe c910 0a3f 8525 cd3d
000002b0: 5d94 ef3d e21c 423e f9ed 623e 03b4 d43e
000002c0: 5a97 fabe 7b03 d2bf 4914 f7bd ba47 ef3e
000002d0: f458 343e 9ba9 8e3e d497 6bbf 32c7 1bbf
000002e0: d533 b2be a94b 1f3f 6ff3 2a3f b495 173c
000002f0: e8e8 83bc 2007 013f 64d5 4bbe ab84 6bbe
00000300: ad3a 963e 039c 923e de1e d7be f029 04bf
00000310: 202c d3be cfe4 0dbe f8d6 46be 1eb7 d03e
00000320: 4821 2a3f b04b 8e3f c403 ba3e 7b18 d5be
00000330: 0826 983e 8c21 8b3d 7949 163f 21ea 483d
00000340: dacc b5be a0a3 dfbd b3a6 1cbe 40cd c63e
00000350: cee4 1f3e 5a33 6bbf 1749 55bf 52e1 86be
00000360: dc05 793e 6001 8d3e 2acd ebbd a447 8abe
00000370: 9713 34bf b459 07bf 7328 06be 8058 033f
00000380: 9719 103f 36f9 5fbe a48b 1ebf e34b 373c
00000390: e1cf 313f b076 0b3f 56f5 57bd 1fe7 23bf
000003a0: 5d6b 15bf d4fd bebd 272a 7bbe 6752 233f
000003b0: ee2e 26be 7bb1 71be 0591 0a3f 786e d73e
000003c0: 54f8 ba3d 310e e5be 0004 24be a928 4d3f
000003d0: cde5 3a3f 057b 9a3e 8bb3 f8bd ea55 ee3c
000003e0: 3246 763e 937c c9be 7568 98bf 92cb 9ebe
000003f0: d530 9f3f 1ca9 0bbe a120 37bc e881 2abf

layer2.0.bias f4 [32]
-0.035582114 -0.037898947 -0.10573266 0.040977944 -0.05713834 -0.007825327 -0.070769355 -0.047213703
-0.12740304 -0.021999193 -0.06958382 -0.04551353 -0.051092908 -0.03452415 -0.009511918 -0.044522054
-0.029804708 -0.057534326 -0.13018164 0.08244967 -0.047276825 -0.065477386 -0.03910442 -0.016530888
-0.10753411 -0.11684387 0.02552139 -0.03757175 0.05293351 -0.014273167 -0.0089529045 -0.060544323
00000000: 8dbe 11bd ed3b 1bbd 5d8a d8bd 7dd8 273d
00000010: e409 6abd cd35 00bc 86ef 90bd 2863 41bd
00000020: f175 02be a737 b4bc f681 8ebd 656c 3abd
00000030: cc46 51bd 3269 0dbd e0d7 1bbc c25c 36bd
00000040: 0129 f4bc 1da9 6bbd 564e 05be 5fdb a83d
00000050: 58a5 41bd 0219 86bd f52b 20bd c96b 87bc
00000060: d83a dcbd d74b efbd 3c12 d13c d6e4 19bd
00000070: cfd0 583d 00da 69bc 34af 12bc 53fd 77bd

layer2.1.weight f4 [32]
0.42149395 0.37717974 0.42937407 0.38947266 0.42509046 0.3566313 0.39064428 0.62622523
0.61159074 0.37918374 0.49695024 0.17111245 0.2628809 0.4165452 0.49433815 0.4883484
0.46933687 0.42817354 0.6047625 0.46390817 0.51266783 0.3025311 0.2847865 0.4411003
0.36977974 0.45804924 0.56595224 0.45705575 0.4971966 0.49603367 0.39427692 0.40846306
00000000: 0ece d73e b41d c13e ebd6 db3e f668 c73e
00000010: 75a5 d93e 6198 b63e 8702 c83e 4c50 203f
00000020: 3691 1c3f 5f24 c23e 4370 fe3e 1a38 2f3e
00000030: 5398 863e 6a45 d53e e419 fd3e cd08 fa3e
00000040: ec4c f03e 9039 db3e b7d1 1a3f 5f85 ed3e
00000050: 333e 033f 5be5 9a3e 89cf 913e e6d7 e13e
00000060: c553 bd3e 6e85 ea3e 3fe2 103f 3603 ea3e
00000070: 8e90 fe3e 20f8 fd3e aade c93e 1222 d13e

layer2.1.bias f4 [32]
-0.8871288 -0.7127018 -0.46869716 -0.87961197 -0.8141718 -0.6201805 -0.625392 -0.78115964
-0.6834094 -0.62842953 -0.8616338 -0.8344335 -0.8408812 -0.65388674 -0.77871066 -0.7043288
-0.8332098 -0.98033047 -0.753175 -0.5805464 -0.6763154 -0.7318465 -0.716377 -0.7407865
-0.80241156 -0.5127289 -0.82864285 -0.6941049 -0.5593461 -0.63174105 -0.70977294 -0.75946
00000000: df1a 63bf a073 36bf 13f9 efbe 402e 61bf
00000010: 906d 50bf 26c4 1ebf b119 20bf 14fa 47bf
00000020: ebf3 2ebf c2e0 20bf 0894 5cbf 6f9d 55bf
00000030: fe43 57bf 1f65 27bf 9559 47bf e44e 34bf
00000040: 3d4d 55bf f0f6 7abf 14d0 40bf b09e 14bf
00000050: 0223 2dbf 4b5a 3bbf 7c64 37bf 2fa4 3dbf
00000060: d86a 4dbf 3442 03bf f021 54bf dcb0 31bf
00000070: 4e31 0fbf c8b9 21bf aeb3 35bf f86b 42bf

layer2.1.running_mean f4 [32]
-6.9404955 -11.394163 4.6382074 13.536599 -5.4061036 -5.5702767 -19.115791 1.9916366
8.091428 3.1573699 -7.1607027 -20.215696 -4.531535 29.6354 2.0478115 18.017075
5.4991417 24.10689 -4.705204 12.665273 -18.881805 8.40315 -12.941319 0.9184995
2.7227376 2.3162131 -17.845612 -5.812388 -15.054969 2.9971983 -5.2288303 -4.452088
00000000: 8a18 dec0 7e4e 36c1 326c 9440 e995 5841
00000010: cdfe acc0 b53f b2c0 24ed 98c1 f3ed fe3f
00000020: 7d76 0141 5912 4a40 7a24 e5c0 bfb9 a1c1
00000030: 5602 91c0 4d15 ed41 580f 0340 f822 9041
00000040: f8f8 af40 e9da c041 0891 96c0 f5a4 4a41
00000050: f00d 97c1 4d73 0641 a50f 4fc1 c922 6b3f
00000060: 5541 2e40 d63c 1440 d0c3 8ec1 15ff b9c0
00000070: 27e1 70c1 19d2 3f40 9452 a7c0 8177 8ec0

layer2.1.running_var f4 [32]
222.06902 129.31416 333.63385 323.4061 270.61252 223.44191 386.6248 295.76483
269.77167 318.24097 250.24956 273.9756 446.66394 231.51643 262.32538 336.57407
161.59293 253.96162 238.58603 402.45374 343.1234 247.66685 274.48 348.08087
166.03717 350.69632 225.0772 181.46689 346.1075 540.7003 233.5642 237.23613
00000000: ab11 5e43 6d50 0143 22d1 a643 fbb3 a143
00000010: 674e 8743 2171 5f43 f94f c143 e6e1 9343
00000020: c6e2 8643 d81e 9f43 e33f 7a43 e0fc 8843
00000030: fc54 df43 3584 6743 a629 8343 7b49 a843
00000040: ca97 2143 2df6 7d43 0696 6e43 143a c943
00000050: cc8f ab43 b7aa 7743 713d 8943 5a0a ae43
00000060: 8409 2643 2159 af43 c313 6143 8677 3543
00000070: c30d ad43 d22c 0744 6f90 6943 733c 6d43

fc.weight f4 [10, 1568]
-0.31182104 -1.3615419 -0.81220293 -0.20487987 -0.056066085 -0.57041156 0.040139414 -1.3609596
-1.9226179 -0.64656484 0.18997945 0.0071030734 0.12816165 -0.6380151 -0.6418681 -1.4636353
-1.3528978 -0.71002483 0.110215396 0.39614964 0.47995612 -0.6248166 -0.36472735 -0.79764616
-1.1730901 0.52762854 0.040230304 1.320254 -0.24601674 -0.021783587 0.07327327 -1.4802852
-0.06727821 -0.54059607 0.35944763 0.31383556 -0.12842144 0.08948782 -1.1503125 -2.4916296
-1.9438494 -0.68558556 -0.06986187 0.34587353 -1.010585 -2.9022868 -2.7871318 -2.1306756
-0.66250443 -0.34622332 -1.1874746 -0.0281804 -0.35560885 -0.57893246 -0.58360404 -0.13165747
-1.5160769 -0.9557849 -0.34833765 -0.80486876 0.08826141 0.80243415 -0.086169966 -1.1019046
-0.88893175 -0.34496415 -0.4027605 -0.08859848 0.22811987 -0.17595007 -0.7815829 -0.1730703
-0.21887417 -0.8663104 -1.0250206 -0.513658 -0.2469281 -0.29786447 -0.19957598 0.13740997
-0.9660259 -2.7130737 -1.4770148 -0.53513896 0.2441515 -0.14877973 -0.48007768 -0.5863001
-2.0374622 -1.0902001 -0.33843786 -0.17435978 -0.95350534 -1.0249659 -1.0829214 -0.2867877
0.77985865 0.47454226 -0.55529547 -0.7252986 0.006617525 -0.34461102 0.34791285 0.06735384
0.11335778 -0.29229102 -0.24202095 0.28287038 0.2823269 0.37401262 0.117373444 -0.17535052
-0.028210197 -0.46843746 -0.63323694 -0.074320324 -0.00578246 -0.21713385 -0.054306887 -0.696969
-1.0881928 -1.5374668 -0.22342542 -0.8713255 -2.5392156 -0.2982948 -1.2816259 -1.5618734
-1.1505587 -0.15230876 -1.4181968 -2.2566586 -1.1262478 -1.4784278 -1.0984788 -0.29595333
-0.033207256 0.8386132 0.29144993 -0.018528465 0.26574028 0.10250146 -0.3301002 -0.36105788
-0.06420824 -0.17043525 -0.45369154 -0.8192978 -0.72404486 -0.42567062 -0.31600425 0.13394853
-1.0468595 -0.7253264 -0.5669126 -0.5858459 -0.08702943 -1.1869094 -0.4054292 -0.2472337
-0.4493433 -0.00054706185 -0.88150984 -1.2897573 -0.2526318 0.11529668 -0.012773875 -1.1102695
-1.2942625 -1.7635533 -0.23430374 0.32397234 0.030704232 -0.6663759 -0.5780457 -1.4029201
-1.8032861 -1.3934118 -0.5223091 -1.2195145 -1.0955305 -1.6089437 -0.056243666 0.18950705
-0.3287324 -0.21795739 -1.3648363 -1.0988904 -0.41987234 0.7232759 0.50363994 -0.085235074
-0.1890436 -0.76768273 -0.5138865 -0.13344733 -0.13807946 -0.08821948 -0.82674956 -0.21672298
0.14437257 0.26771975 0.3457171 -0.13488245 -0.09540169 -1.0314736 -0.4756015 -1.0778226
-0.9862153 -0.49639222 -0.335584 -0.5052505 0.40142462 -0.66539764 -1.3626918 -2.3486907
-0.65646887 -0.33127287 -0.59153354 0.24963787 0.47570655 -2.5157452 0.017237725 -0.40904617
-0.025206765 0.11403878 0.30927584 -0.9188721 -1.3062603 -0.7653544 -0.36110076 0.01689277
-0.14967857 -0.3208623 -0.9222999 -0.7404882 -0.6150154 0.33245882 -0.05254094 -0.6225145
-0.4268306 -0.47649124 -0.6973259 -0.95024383 -0.31030828 0.058236748 -0.030223347 -0.08626251
-0.14781867 -0.10392829 -0.15106788 -0.04746181 0.0043290686 -0.20944087 -0.7654943 -1.1808013
00000000: 02a7 9fbe 0147 aebf 88ec 4fbf 07cc 51be
00000010: 8da5 65bd 7e06 12bf 3a69 243d ed33 aebf
00000020: 5818 f6bf 4685 25bf f989 423e e6c0 e83b
00000030: cf3c 033e f554 23bf 7851 24bf 6758 bbbf
00000040: c12b adbf 30c4 35bf 9cb8 e13d 20d4 ca3e
00000050: cfbc f53e fbf3 1fbf 8bbd babe 8a32 4cbf
00000060: d127 96bf aa12 073f 88c8 243d 15fe a83f
00000070: d0eb 7bbe 7e73 b2bc 4c10 963d fc79 bdbf
00000080: 28c9 89bd 8164 0abf 8509 b83e 0eaf a03e
00000090: e980 03be 6445 b73d 713d 93bf dc76 1fc0
000000a0: 0fd0 f8bf 8982 2fbf bd13 8fbd 5616 b13e
000000b0: d95a 81bf 11bf 39c0 5e60 32c0 fd5c 08c0
000000c0: e499 29bf 2f44 b1be 2bff 97bf 95da e6bc
000000d0: 5d12 b6be eb34 14bf 1367 15bf 37d1 06be
000000e0: cf0e c2bf 52ae 74bf 5059 b2be e10b 4ebf
000000f0: 66c2 b43d 536c 4d3f e179 b0bd 360b 8dbf
00000100: 0891 63bf 249f b0be a036 cebe 1f73 b5bd
00000110: 4198 693e 412c 34be d115 48bf 5739 31be
00000120: 8d20 60be 85c6 5dbf e033 83bf 177f 03bf
00000130: b8da 7cbe b181 98be a55d 4cbe 33b5 0c3e
00000140: 794d 77bf 00a3 2dc0 d20e bdbf defe 08bf
00000150: da02 7a3e b759 18be becc f5be c317 16bf
00000160: c865 02c0 ad8b 8bbf ba47 adbe 5f8b 32be
00000170: ed18 74bf 1532 83bf 2b9d 8abf d6d5 92be
00000180: d1a4 473f 34f7 f23e d827 0ebf 2bad 39bf
00000190: d3d7 d83b db70 b0be a221 b23e cff0 893d
000001a0: 2028 e83d 2ba7 95be 57d4 77be 63d4 903e
000001b0: 278d 903e 957e bf3e 7d61 f03d 168f 33be
000001c0: 1219 e7bc 09d7 efbe d11b 22bf 4135 98bd
000001d0: ca7a bdbb 5658 5ebe e670 5ebd 8f6c 32bf
000001e0: e749 8bbf b6cb c4bf a2c9 64be 300f 5fbf
000001f0: 8282 22c0 19ba 98be 510c a4bf 78eb c7bf
00000200: 8245 93bf d4f6 1bbe 7987 b5bf 186d 10c0
00000210: e328 90bf 1f3d bdbf f49a 8cbf 3287 97be
00000220: 5504 08bd 5baf 563f ed38 953e 02c9 97bc
00000230: 1c0f 883e 49ec d13d e502 a9be 94dc b8be
00000240: 9c7f 83bd 9486 2ebe 424a e8be 80bd 51bf
00000250: 015b 39bf 80f1 d9be 4fcb a1be ce29 093e
00000260: 7eff 85bf feae 39bf 2f21 11bf fff9 15bf
00000270: 7c3c b2bd a6ec 97bf 6b94 cfbe d52a 7dbe
00000280: 5310 e6be b368 0fba a1aa 61bf c416 a5bf
00000290: f558 81be aa20 ec3d 8449 51bc 501d 8ebf
000002a0: 65aa a5bf 1dbc e1bf 52ed 6fbe b4df a53e
000002b0: 7187 fb3c 9c97 2abf cefa 13bf e392 b3bf
000002c0: 14d2 e6bf 515b b2bf 0db6 05bf 0d19 9cbf
000002d0: 583a 8cbf def1 cdbf c25f 66bd 230e 423e
000002e0: 9d4f a8be 3930 5fbe f5b2 aebf 71a8 8cbf
000002f0: 82f9 d6be 9c28 393f 8cee 003f ba8f aebd
00000300: a594 41be db86 44bf 118e 03bf 6ba6 08be
00000310: b464 0dbe 6aac b4bd dca5 53bf a1ec 5dbe
00000320: 67d6 133e 9012 893e d501 b13e a01e 0abe
00000330: f661 c3bd 5407 84bf 0a82 f3be 17f6 89bf
00000340: 9b78 7cbf 1f27 febe abd1 abbe 1958 01bf
00000350: 8787 cd3e 8057 2abf af6c aebf f350 16c0
00000360: 580e 28bf 999c a9be be6e 17bf 12a1 7f3e
00000370: cf8f f33e f801 21c0 2136 8d3c 806e d1be
00000380: 6b7e cebc 2a8d e93d 6759 9e3e 343b 6bbf
00000390: 8a33 a7bf 44ee 43bf 33e2 b8be b562 8a3c
000003a0: 5745 19be 1048 a4be d91b 6cbf a290 3dbf
000003b0: a671 1dbf 0b38 aa3e 2b35 57bd 1c5d 1fbf
000003c0: 8a89 dabe a9f6 f3be f383 32bf 2e43 73bf
000003d0: bae0 9ebe a889 6e3d f496 f7bc 66aa b0bd
000003e0: c75d 17be 5bd8 d4bd 8ab1 1abe 5167 42bd
000003f0: dcda 8d3b ab77 56be 6ff7 43bf 7f24 97bf

fc.bias f4 [10]
-0.47465408 0.29417726 -0.3189179 0.25178432 -0.22652432 0.053205065 -0.33628514 -0.33786768
0.06655324 -0.06455241
00000000: dc05 f3be 679e 963e 3549 a3be e0e9 803e
00000010: fef5 67be 8eed 593d 912d acbe fefc acbe
00000020: 114d 883d 0e34 84bd
