code/model.ckpt (torch, 88436 bytes, 6 tensors)

rnn.cell.fc1.weight f4 [128, 28]
00000000: 6735 313c c7a8 abbd d2fb 613d 9208 073d
00000010: bf69 8e3d d649 603b 7ee8 c1bc 7120 cbbd
00000020: 4ab9 09be b345 9abe 0fba 8fbe bf23 4dbe
00000030: fe63 62be 0c5f 60be a5e4 7cbe 6434 89be
00000040: 7c3e a1be 9586 5ebe 8fb6 0ebe 881e 0bbe
00000050: fa67 70bd 429d fcbd 1d1c 05be d01e f7bd
00000060: 95b9 5cbe 4544 b5bd d8c4 17be 89f7 d4bd
00000070: d5ae 013e 0575 a5bd 6242 3cbd 6379 ecbb
00000080: b5a5 8cbd 3657 b9bd 2e2d 65bd 0bbd 60bc
00000090: 158e ca3c dbae 5ebd d9fe 98bc 7950 debd
000000a0: 1d3d 58bd 8335 263c 49e6 ddbd 8a66 55be
000000b0: 7944 c0be 782f 9fbe f662 1fbe 2ad5 c1bc
000000c0: 775f 383e 13b9 2c3e 5fc3 483e bac6 3e3e
000000d0: b416 1c3e 425d 1c3e c94e 3b3e bed5 ac3b
000000e0: efbf 2bbe 8b65 febd df6c d2bd a41e 053c
000000f0: 03f4 f53d 77e8 cf3d 415d c83d 561c 1b3e
00000100: ffd2 393d d628 a83d 4f1b a43d 7aa0 993d
00000110: f48d 393e a2de 823e 4f20 5b3e d678 c53d
00000120: 7aa4 843d 1d77 353b a3f0 9cbd 509e c4bd
00000130: 1d6b 8bbd 67a9 60bd bc39 4c3d 328d 023e
00000140: b5cd 60bc eacf 5dba 5f1b 9d3d d7f0 c03d
00000150: 3132 1a3d d824 3dbd 5eb9 0e3d 6ae0 9bbd
00000160: 9b2f 22be f207 5abe d9d1 20be e607 39be
00000170: 3924 c8bc f2ab 393c 7580 72bc 279e e43d
00000180: 61f7 f23d 4b89 17bc c1ed 0fbe 27aa 1cbe
00000190: 20b1 c7bd 6b6f dfbd a939 a53d fcff ef3c
000001a0: a01e 093e 1d05 fd3d 91a8 683e 0db7 493e
000001b0: 4177 1f3e 372b ee3d 169e c9bd be06 a9bd
000001c0: 2ee3 febb c6c8 5b3d 3d0a 84bc 8e42 e9bd
000001d0: 1833 a33d 1892 b43d 73ff 6e3c a8c6 d83d
000001e0: a580 163e 8764 6f3e 06cc 883d 4e22 2ebd
000001f0: 142c 3ebd d01c 28be 8723 eebd 0f9a 153b
00000200: c58d 063d 3e1e f7bb bd78 d5bc b0c6 a2bd
00000210: d2a6 063d 25a8 af3c 33ac abbd 6dad 1bbe
00000220: 8336 dcbc a219 b6bb c254 813d 7f16 833d
00000230: 627a a13d 75c0 1f3d 3374 03bd 60eb be3d
00000240: 6f28 873e 2df9 aa3e 15f2 e33e 1b7d 6e3e
00000250: 8916 783e 2fee 953e 1a38 703e 6bf0 c43e
00000260: 18ac ee3e d848 e43e 5dee 723e e9ae 8bbd
00000270: 2273 d1bd fb24 f4bc b35c 1abe dfc2 1bbe
00000280: 59fa b4bd f256 3abe c38e 9f3a 9032 83bd
00000290: dff7 08be 32d7 6cbe d65e 1bbe ba2d 23be
000002a0: 6fda 2cbd 8534 22bd ad86 1dbd 2b72 30bc
000002b0: 28f5 103e f129 343e 4fe4 303e 77b6 4f3e
000002c0: 0528 4a3e 32d2 c93d 85d8 2c3e 0845 c23b
000002d0: 043b 333e 955b 343d 834f 433c 9553 d1bc
000002e0: 8933 1e3d 19d7 00bd c363 83bc 9906 30be
000002f0: ef57 18be 6da0 06be c4f5 24be b8da 37be
00000300: 6ed2 cebd f3a3 21be bc5b 10be 36ee d13b
00000310: eaf7 ec3d 0bc4 a43d 1ec5 f8bc 8f63 b93d
00000320: cfd3 cb3c da5b 34bd baf8 29bc b999 aebd
00000330: e19a 0bbd 0f46 d53d ed71 d0bc 2468 963d
00000340: 449b ee3d 2497 e93d f778 fa3d 14ab fcbc
00000350: 4f01 933d bc21 f33d ff49 0e3d a355 13bc
00000360: 68c5 b1bc 2e61 82bd 4a8f 02be 5505 18be
00000370: 9ebb 52be 61d7 3ebe 6a92 53be 6ee3 14bd
00000380: 5631 edbb 609f 1b3d bc79 823d 8dc6 2ebd
00000390: 0af2 97bd eb98 b3bb a021 31be 0758 ddbd
000003a0: d710 21bd 1907 8e3d beda 2c3e 1d4a 4f3e
000003b0: c7e6 123e 53ae 353d 3ce7 d33c b0f4 083d
000003c0: baa3 a53d 8d42 e53d 81cf 833d cf7c bbbc
000003d0: a84b 033d d931 9b3d ab08 fdbc 5f4c 8abe
000003e0: 1db0 59be 082b 9fbe cc72 0f3d 5c7f dc39
000003f0: 219e 5abd b6d3 2cbe 9dae 4dbd f43e 93bd
0.010815955 -0.08381801 0.055171795 0.032967158 0.06953763 0.0034223697 -0.023670431 -0.09918297
-0.13449588 -0.301313 -0.2807164 -0.20033167 -0.22108456 -0.21911258 -0.24696596 -0.26797783
-0.31492984 -0.21731026 -0.13936828 -0.13585865 -0.05869291 -0.12334682 -0.12999006 -0.12066424
-0.21555169 -0.08850912 -0.14821184 -0.10398776 0.1266435 -0.0807896 -0.045961745 -0.007216619
-0.068675436 -0.09049837 -0.05595129 -0.013716946 0.024725953 -0.054365974 -0.018676208 -0.10855193
-0.052792657 0.010144594 -0.10834939 -0.20839897 -0.3755224 -0.31090903 -0.15565094 -0.023661215
0.18005167 0.16867475 0.19605778 0.18630496 0.15243036 0.1526995 0.18291773 0.0052745035
-0.16772436 -0.124217115 -0.10274672 0.008124981 0.12009432 0.10151761 0.09783412 0.15147528
0.045367237 0.08210914 0.08013021 0.075013116 0.18120557 0.2556048 0.21399044 0.09642188
0.06476684 0.0027689405 -0.07663085 -0.09600508 -0.068075396 -0.054849055 0.049859747 0.12749174
-0.013720919 -0.00084614626 0.07671236 0.094209366 0.037645523 -0.046177715 0.03484475 -0.07611163
-0.15838473 -0.21292093 -0.1570505 -0.1806942 -0.024431335 0.011332499 -0.014801134 0.11162978
0.1186359 -0.009249042 -0.1405554 -0.15299283 -0.09750581 -0.10909923 0.080676384 0.029296868
0.13390589 0.12354491 0.22720553 0.19698735 0.15572836 0.11629336 -0.098446056 -0.08253239
-0.007778547 0.05365827 -0.016118163 -0.113896474 0.0796873 0.08816928 0.014587271 0.10584766
0.14697511 0.23378192 0.066795394 -0.042513184 -0.046428755 -0.16417241 -0.1162787 0.0022827422
0.032850046 -0.007541447 -0.026058549 -0.07948053 0.032873936 0.021442482 -0.08382454 -0.15202875
-0.026881462 -0.005557255 0.063149944 0.06400775 0.07884671 0.0390019 -0.032093238 0.09322238
0.26398036 0.3339323 0.4452063 0.23289911 0.24227346 0.29283282 0.23458901 0.38464674
0.46615672 0.44586825 0.23723741 -0.06820471 -0.10227038 -0.02980279 -0.15074424 -0.15211056
-0.088368125 -0.1819723 0.0012173284 -0.064061284 -0.13375805 -0.23128965 -0.15172896 -0.15935412
-0.042200502 -0.039600868 -0.038458515 -0.010769407 0.1415602 0.17594124 0.17274593 0.20284449
0.19741829 0.09854545 0.1687947 0.0059286393 0.17502981 0.044032652 0.011920813 -0.02555255
0.038623367 -0.031455133 -0.016038781 -0.17190017 -0.14877294 -0.13147135 -0.16109377 -0.17954528
-0.1009873 -0.15785198 -0.14097494 0.006406571 0.11570723 0.08045205 -0.03036743 0.090521924
0.024881272 -0.04403291 -0.010374242 -0.08525414 -0.03408325 0.10413753 -0.025444949 0.07344082
0.11650708 0.11405781 0.122301035 -0.030843295 0.07177984 0.11871669 0.034738537 -0.008992585
-0.021700576 -0.06366192 -0.12749973 -0.14845784 -0.20579383 -0.18636848 -0.20661321 -0.036349706
-0.0072385473 0.03799379 0.06370875 -0.04266982 -0.07419212 -0.0054808757 -0.17297983 -0.108078055
-0.0393227 0.069349475 0.16880319 0.20243116 0.14345847 0.0443557 0.025867097 0.033436477
0.08087869 0.11194334 0.064360626 -0.022886662 0.032054573 0.07577867 -0.030887922 -0.27011392
-0.21258588 -0.31087518 0.03502159 0.0004205656 -0.05337346 -0.16877636 -0.050215352 -0.07189742

rnn.cell.fc1.bias f4 [128]
00000000: 5879 173e 0f4f 9f3c 791a 24bd b795 4e3d
00000010: 2165 f73b 7d6f e83d dc14 ab3b f4c0 b83c
00000020: af06 efbd a17a 7bbd 84a9 62bc 2bc7 163d
00000030: 25b2 963c 549f ff3c 0efc 10be 0eaf 1cbe
00000040: 3172 9dbd 98b1 c83d 8c0f 2a3d 9a80 bc3d
00000050: 9321 2c3e 9192 74ba 65ae 1b3e 6926 5cbd
00000060: 3f3d 203d 98b2 94bc d5bd 3cbd fbd6 85bd
00000070: c67a f4bc 67c8 d53c 4a73 bcbb 96d4 d3bd
00000080: fa44 2a3c 05a6 cf3d bff7 903d e042 95bb
00000090: 207d 213e f9fb d83d 4f98 aabd d56b febd
000000a0: 7a54 1c3d 8b7c f8bd c2b1 30bd 539b 31bd
000000b0: 35cb 9f3c 2878 fd3d 3d0c e2bd 92b3 523d
000000c0: e475 9fbd 70f5 00be 01b1 7d3c 2aa0 043d
000000d0: fbaa f3bd c40c 31bd d730 963c f77c 123d
000000e0: 9d6f abbb d66d a43d fe8b 20be 697f a53d
000000f0: 7848 d83d 3a33 183d 5403 f73d bcc6 1bbc
00000100: 4c6a 44bd d6d0 b73d 977e 7fbd fa03 733c
00000110: df6e 793d 9186 d2bd 8e51 723e 9cc0 51bd
00000120: 8b8d a5bc 498a a13b 66cf 183e 7dd7 d23d
00000130: 93f6 f2bc e627 78bd d896 d03d 9904 98ba
00000140: c912 6bbb 4712 b2bd 2eaf 853d 1935 ff3d
00000150: 1697 a4bd 5fde a23d f2af 18be a322 98bd
00000160: e167 ddbd 7f66 a33d d0ff 113d b185 af3d
00000170: 4112 88bd 1411 6fbd 7a2a abbd d807 a43d
00000180: 1e58 56bd 851d b4bb b690 473e f3f5 cdbc
00000190: afe1 8b3c c600 0ebd 1ebc 11bd 4dcf ccbd
000001a0: 8f37 033d 55ca c2bb 4341 89be e470 f53c
000001b0: 8090 813d b5c3 103d a3d7 c5bd c22b 8fbd
000001c0: e1bf 09be 0624 b0bd 5215 d8bd c8e9 4dbe
000001d0: 980e bb3d 1936 cebd 4e87 dcbc 1f11 583c
000001e0: 5f29 1dbd 5cd7 6c3d 50e1 91bd 3cfc 53be
000001f0: 3c19 6fbd 03e9 81bd 54a8 0b3e 0820 883d
0.14792383 0.019446878 -0.04006431 0.050435748 0.0075498973 0.1134939 0.0052209925 0.022552945
-0.11671197 -0.061396245 -0.013834361 0.036811035 0.018395493 0.031203903 -0.14158651 -0.15301153
-0.07687796 0.09799498 0.041518733 0.09204216 0.16809683 -0.00093297014 0.15203245 -0.05374757
0.03912091 -0.018151566 -0.046079475 -0.06535145 -0.0298437 0.026096536 -0.005751048 -0.10343282
0.010392422 0.101390876 0.07078504 -0.0045550913 0.15770388 0.10594935 -0.08329832 -0.12422911
0.0381665 -0.1213313 -0.043138273 -0.04336102 0.019506076 0.123764336 -0.110374905 0.051440783
-0.07786158 -0.12593627 0.015484096 0.032379307 -0.11897846 -0.043225065 0.018333836 0.035763707
-0.005231811 0.08028762 -0.15678403 0.08080942 0.10560697 0.03715823 0.12061182 -0.009507831
-0.047952935 0.08975379 -0.062376585 0.014832491 0.06089675 -0.10279573 0.23663923 -0.051209077
-0.020209095 0.004929815 0.14922866 0.102950074 -0.029658591 -0.060584925 0.10185021 -0.001159805
-0.003586935 -0.086948924 0.065275535 0.124612994 -0.0803663 0.0795257 -0.14910868 -0.074284814
-0.10810829 0.07978534 0.035644352 0.085704215 -0.06644107 -0.058365896 -0.08357711 0.080093086
-0.05233013 -0.005496683 0.19488797 -0.025141692 0.017075388 -0.034668706 -0.035579793 -0.10000477
0.032035407 -0.00594453 -0.26807603 0.029961057 0.06326389 0.03534289 -0.0966027 -0.06990768
-0.13452102 -0.08600621 -0.105509415 -0.20108712 0.09133643 -0.10068912 -0.026919987 0.013187676
-0.038369533 0.05782257 -0.07123053 -0.20701689 -0.058373675 -0.063432716 0.13638431 0.066467345

rnn.cell.fc2.weight f4 [128, 128]
00000000: 2aab 0b3e cdd9 a8bd 3adb 60bc 1f70 d5bc
00000010: 4c8e 9fbd cb1b 01bc 5a5b aa3d 8299 7c3c
00000020: 9476 72bb 4e54 a6bd 7c56 dbbd 2fde 9e3d
00000030: c2fe a0bd 6e76 1c3c 7941 4e3c 55f5 fa3c
00000040: f6a1 58bd 9e38 d53c a199 843d a5cf 583d
00000050: 4a6c ab3d b934 a83b 4f0a 203d 3011 ba3c
00000060: f274 183c b910 a43d 0f2d dabd 67a2 803b
00000070: b76e 753d c4ab c6bc 895f b2bc 654c babc
00000080: ab04 063d 013a 963d 3187 aebb 9166 1c3d
00000090: 71a6 243c b916 03bd 2203 173d e928 883d
000000a0: fe90 663b a77c fb3d b7a9 8abd 8960 b2bb
000000b0: a877 95bd 4b93 7cbb 4433 803d be00 e5bd
000000c0: c825 dbbc c0ad 083d cbab f4bd 54e9 913d
000000d0: 116a fb3d 085f 753d 73ac d93d f011 99bd
000000e0: 6f1c ac3d 9428 1cbd f683 a6bd 153a 463d
000000f0: a8de c53d f92e 1ebd 60bd 4ebd dd53 6a3e
00000100: a09b 6dbc c6c7 873d bd4a 083c 4dd8 c3bd
00000110: d3db ed3c f1c0 85bd 178e 07bd 969b 87bd
00000120: 0256 ffbd 037d f63c 4611 dd3d bd83 61bd
00000130: 5c55 bb3d 3f52 b0bd e1b1 103e 507c ab3b
00000140: c228 45bd 431e babd 7ab6 0a3d 4a0b 023e
00000150: 3057 a23d 53a1 9fbb f1fd 743d 68c1 43bd
00000160: ba34 0c3e 5b4d 8ebb 7ae3 983d 3ea3 d63d
00000170: cc5b edbd 1035 9d3b d835 8fbc 2d4b e13d
00000180: 8898 c2bc 11b1 1d3d 940f 47bd 796d d439
00000190: c305 513c 8102 8abd d49f a8bc 96e7 c0bd
000001a0: 0c2e 63bd 219b 0abd 92aa 5ebd cb14 123e
000001b0: 1a92 183e 695b e5bc 6657 ecbc 38da cbbb
000001c0: 9a9b 25bc 9037 59bc cf9b fabd f7cb 07bd
000001d0: a707 1b3e 293f 23be 6e98 61bc 21fd cebc
000001e0: e839 e2bd 91b7 ca3d 763b 92bd ebce b4bc
000001f0: 3244 b7bc e43b ae3c d8b5 143e aa16 90bd
00000200: 0902 a93b 3ccd 633e 3be3 123d 1d4b c2bc
00000210: 4d9a 41bc a5b7 393d 5009 0e3d b58a b83c
00000220: 53d0 44bc d064 1dbe 4137 143d 8f6d f93d
00000230: 6545 89bd 034d c0bd 0abe 28bc 57fa ae3d
00000240: 67b3 1c3e 5e83 92bd f0bb 893d a2e2 c3bd
00000250: e771 09be acd1 5b3d b2a4 82bd dae2 f43d
00000260: fbe3 71bd bfb4 cbbc c1d5 833d de29 17bd
00000270: c736 f1bc a8ce af3d 7beb dfbd 0651 13bd
00000280: 6c7a c0bc 72c8 7abe 16df a53d af38 3ebd
00000290: 1f21 bfbd a6b8 183c e69c 2e3e b574 303e
000002a0: 2cbc cc3d 5b46 e73d 4b76 13be 6b8e 143d
000002b0: 745d abbc c104 8a3d a03b a7bd c81b c43d
000002c0: 154c cb3d 4362 843d 2cc9 cd3d ad3e 8fbc
000002d0: 4fda d13d f855 ddbd b767 993c cb3d debb
000002e0: fcab 0abd e450 4e3e faf0 743d 57d7 203d
000002f0: b960 253e fdcb b63c aa56 be3d 719a 653b
00000300: bd63 1c3e ad7c bdbd 8113 f73d 4ff1 0e3e
00000310: 0605 bbbd 8220 aa3c ae0b 973c ebe4 e3bc
00000320: 2118 2dbd 37a3 73bd c3c8 01be 78ec a5bd
00000330: 13fd 703b 083d 363d 31df 583e f8f1 04be
00000340: 50aa fdbd 97f2 6ebe 6daa babd 16f5 b2bd
00000350: 911e fabc 8735 4a3d ff66 c8bd c865 a6bd
00000360: 2f2b 173e 9ea2 f0bd 3b34 e0bc 93af 76bd
00000370: 6ce9 d0bd 3754 083e a574 7fbc 0e5b c5bd
00000380: 55bf a0bd 1436 b2bd 33b5 10be 05ca d1bd
00000390: 1dbc 173d e826 493e 5ee9 bb3d ee0b 1d3b
000003a0: 5b88 6cbc 1adf 95bc 130e a3bd 49ea ae3a
000003b0: 516a 68bd 8b02 9cbb 3929 983c 0eff 77bd
000003c0: 57af d93c b01a cfbd ace2 593d 44fe 103e
000003d0: 559d 83bd 5ca2 06be a564 1f3d 6c6e a7bc
000003e0: 6cc4 803d b924 ae3b c052 5a3d 82f5 9cbd
000003f0: 68ae 723e 7b84 6d3d 4bbf 003d 4d3b 1dbe
0.13639513 -0.08244667 -0.013724143 -0.02605444 -0.07790813 -0.0078801615 0.08318205 0.0154174585
-0.0036996948 -0.081215486 -0.10709855 0.07757222 -0.07861091 0.00954972 0.012588852 0.030634562
-0.052888833 0.026027974 0.06474615 0.0529324 0.08370264 0.005133238 0.03907233 0.022713274
0.009305226 0.08011002 -0.106531255 0.00392561 0.05992004 -0.024251826 -0.02177407 -0.022741506
0.032719295 0.07335282 -0.0053261747 0.038183752 0.010049448 -0.032004092 0.036868222 0.06648428
0.0035181637 0.12279635 -0.06770652 -0.005443637 -0.07298213 -0.0038539942 0.06259778 -0.11181782
-0.026751414 0.033368826 -0.119468294 0.07124582 0.1227609 0.059905082 0.10628595 -0.074741244
0.08403861 -0.038124636 -0.08130638 0.048395235 0.09661609 -0.038619015 -0.05047357 0.22883554
-0.014502436 0.06629901 0.0083186 -0.095627405 0.029035484 -0.06530941 -0.03309449 -0.066214725
-0.124675766 0.030088907 0.1079431 -0.055057276 0.091471404 -0.08609437 0.14130355 0.005233325
-0.048134573 -0.09087803 0.03386543 0.12699619 0.07926786 -0.0048715263 0.05981249 -0.04779187
0.13691989 -0.0043427176 0.07465263 0.10480355 -0.115897745 0.0047975853 -0.01748173 0.11000667
-0.023754373 0.03849894 -0.04859884 0.00040517355 0.012757721 -0.06738759 -0.020584024 -0.094191715
-0.055463836 -0.03383935 -0.054361887 0.14265744 0.14899483 -0.02799769 -0.028850269 -0.006221082
-0.010107899 -0.013257876 -0.122367494 -0.0331535 0.15139638 -0.15942062 -0.013769252 -0.025267186
-0.11046201 0.09898294 -0.071402475 -0.022071322 -0.022371385 0.021268792 0.14522493 -0.07035573
0.0051577133 0.2224626 0.035861235 -0.023717457 -0.011816573 0.045341153 0.03467685 0.022527078
-0.012012559 -0.15370488 0.036185507 0.121791 -0.06702689 -0.09389689 -0.010299215 0.08543842
0.15302812 -0.071539626 0.06725299 -0.09564711 -0.13422357 0.053666756 -0.063790694 0.11957331
-0.05905531 -0.02486646 0.06437255 -0.036905162 -0.029445065 0.085843384 -0.10933586 -0.03596594
-0.023495875 -0.24490526 0.08099191 -0.046440776 -0.09332489 0.009321367 0.1705204 0.1723202
0.099968284 0.11292716 -0.14400594 0.036268633 -0.020918585 0.06739188 -0.081656694 0.09575611
0.09926621 0.064640544 0.10048136 -0.01748594 0.10246717 -0.10807413 0.018726213 -0.0067822686
-0.033855423 0.20148045 0.059800126 0.039267864 0.16150178 0.022314066 0.092938736 0.0035034681
0.15272422 -0.09252296 0.12064267 0.1395924 -0.091318175 0.020767454 0.018438186 -0.027819118
-0.04225934 -0.059481826 -0.12674241 -0.081017435 0.0036771938 0.044491798 0.21178891 -0.12982929
-0.12386 -0.23334728 -0.091145374 -0.08738153 -0.030532153 0.049367454 -0.0978527 -0.08124882
0.14762567 -0.11749767 -0.027368655 -0.060226034 -0.10200772 0.13313375 -0.015591775 -0.09636508
-0.07848994 -0.08701721 -0.14131622 -0.1024361 0.037044633 0.19643748 0.09175371 0.002396341
-0.014436807 -0.01829486 -0.07961669 0.0013344969 -0.056742016 -0.0047610453 0.018574344 -0.060545973
0.026572866 -0.10112512 0.053194687 0.14159495 -0.06426493 -0.13147873 0.03891434 -0.020438395
0.062874645 0.0053144363 0.053301573 -0.076640144 0.23699343 0.05798767 0.03143243 -0.15354653

rnn.cell.fc2.bias f4 [128]
00000000: f4a6 063e 408c b6bd 8724 813d 0cbf 3dbc
00000010: cd07 aebc 4308 91b9 b074 023e 199b b8bd
00000020: e689 47bb bbdd 283c 3ec2 9c3c 9829 9cbc
00000030: 1453 993c 6f78 68bd 1b43 0abd 28e8 02be
00000040: 2f53 9abd 99bd c33d 519e 783c abbe 143d
00000050: f252 5c3d e6b4 e13d a385 343e 9065 d5bc
00000060: b84e 923d 3630 acbd 2b82 ab3c 3748 54bd
00000070: 89aa d33d dce1 e03d 0477 c43d 0bff 5a3c
00000080: c7eb c63d c801 52bd 7197 c63d 7ebd 15bd
00000090: 72bc b13d 266e 0f3e ea76 ebbd d413 1ebe
000000a0: 04f7 3ebd 1172 7ebd dde1 0dbe 4c0b 78bc
000000b0: 0a56 393e aba5 e4bc 5eb4 b5bd d074 893d
000000c0: d4be f1bd b4f9 a9bc 6349 02bb efcc 0e3c
000000d0: 4440 f1bd 9215 443d afbb 86bd e1b9 503d
000000e0: c13c e23c d6cb a6bd 0c05 04be dc81 fd3d
000000f0: 28a1 e43d 4911 2f3c 47d5 a33c d4b2 9d3d
00000100: 2f15 afbc d5ef d4bb 0b0a b63d 05e3 aa3d
00000110: b561 283d 345f 0f3b f00f 733e 15c1 65bd
00000120: 97d2 35bd 06ed 6bbc e137 b13d 605f c73d
00000130: 75d3 953d 92a2 333d f0ef ce3d 9f15 0f3d
00000140: 5896 4b3d d15d be3c fe2d 9fbc 878a 463d
00000150: b2ef abbd e7d7 c23c fa2b 3abd 4993 89bd
00000160: 6ce3 03bd 87e2 ee3d 3233 37bd dc8f 3c3d
00000170: 63a5 e239 1d05 83bc e311 14bd ba3e 84bd
00000180: 2f13 613d 3186 37bd 68d4 623d 7fde 923d
00000190: 3af6 303d 34ef ecbc 8f33 0bbc 50e3 7abc
000001a0: 64f5 2dbd 25bb 90bc b247 7dbe f54e fdbc
000001b0: 155b 3e3c 9b9f da3d b649 7f3d 822f 7ebc
000001c0: 2b1c dabd 0898 efbd 675f 143c d3e3 54be
000001d0: 52c1 5d3d f693 a23b b082 a03d 28b0 82bc
000001e0: 1dc1 73bd beb2 993c 2542 84bc 72f4 eabd
000001f0: 4af2 c33d 32bf 09bd efc4 b13d fbaf f53d
0.13149625 -0.08913469 0.06305795 -0.011581194 -0.021243954 -0.0002766271 0.12739825 -0.090139575
-0.0030447184 0.010306771 0.01913559 -0.019062802 0.018716373 -0.05675548 -0.033755403 -0.12783873
-0.07535397 0.09557647 0.015174464 0.036314648 0.05379004 0.11020832 0.17629103 -0.026049405
0.07143921 -0.08407633 0.020936092 -0.051826682 0.103352614 0.10980579 0.09593013 0.013366471
0.0971294 -0.05127123 0.09696854 -0.036557667 0.08678521 0.14006862 -0.114972904 -0.15437251
-0.04662229 -0.0621205 -0.13855691 -0.015139412 0.18099228 -0.027911028 -0.08872293 0.06711733
-0.11803976 -0.02074895 -0.0019880168 0.008715852 -0.11779836 0.047872134 -0.065787666 0.050958518
0.02761686 -0.08144347 -0.1289255 0.12378284 0.111635506 0.010685273 0.01999916 0.077001244
-0.021372406 -0.006498317 0.08888634 0.08344082 0.041108806 0.0021876814 0.23736548 -0.05609234
-0.044390287 -0.0143997725 0.08653236 0.09734988 0.07315723 0.04385621 0.10104358 0.03493273
0.049703926 0.023238095 -0.01943111 0.048471954 -0.08395328 0.02378459 -0.045452096 -0.067175455
-0.03219931 0.116643004 -0.044726558 0.046035632 0.00043229302 -0.01599365 -0.03614987 -0.06457277
0.054949936 -0.04480571 0.055378348 0.07171344 0.04320357 -0.028922655 -0.008496179 -0.015312985
-0.04247035 -0.017667362 -0.24734381 -0.030921439 0.011618395 0.106749736 0.062326156 -0.015514256
-0.10649904 -0.116989195 0.009055949 -0.20790033 0.054139443 0.004961486 0.07837427 -0.015953138
-0.05951034 0.018761989 -0.016144821 -0.114724055 0.09567697 -0.033629604 0.0868014 0.11996456

fc.weight f4 [10, 128]
00000000: 496c 40be 7745 863e 63fc 2d3e 3051 6bbe
00000010: ab6c a43e 74ec dfbe e4e2 e73d 0741 913c
00000020: 7afc 43be a02b d5be b30b 5abe f235 5bbd
00000030: bb86 4ebe 99c2 20be 64dc 34bd bbf1 aabd
00000040: 16a3 3a3e 062b bd3d dff3 44be 2b8f 38be
00000050: 82ad 7cbe f99a f6bd 80ea 1cbe fc71 80bd
00000060: 32f7 c6bb 6b56 87bd be22 91be 0228 7abd
00000070: 3d55 563e a7e8 3a3e db9d 833e bd63 4abd
00000080: 81fc 87be 6abd adbe d096 c23d e5a9 6d3e
00000090: 2b62 a43d 09d4 e33b 4ab8 19be a3a1 193d
000000a0: 3cb5 613d 165d 89be 7e0f 3dbe 1fa0 373c
000000b0: 0888 43be 42a9 ba3e 49fd 3ebe 47ea 01bd
000000c0: dad0 a2bd d860 1abd ef21 b2bb 4e1f 95bd
000000d0: 8ef2 cabd 04e0 84bd 42e3 663e e221 9cbd
000000e0: a5b9 babe c628 ae3d ebe7 ca3d 58dd 073d
000000f0: 22a9 08be bb1c 96be 0cae e2bd baaf 5fbd
00000100: d94e 90be 46be d73c d4ed 323e aafc 95bd
00000110: 4c5e 1fbe 8100 a3bd ac79 38be 3e71 afbe
00000120: 2e84 a03c 77df a5bc e35f e1be 6958 3e3d
00000130: 869d ad3e d93e 5abd 8105 25be b65e 963e
00000140: 1fa4 08be ee9e ad3d 8623 bebb 5847 a3bb
00000150: df5f 54be 20e5 6dbe ec46 bf3d 01b8 073c
00000160: 8b67 d0bd 87af 443e 5f43 e43d d1da 30bd
00000170: 2ecf 90be 8bc6 383c 2726 4fbe 6014 c7bc
00000180: f3c9 61bd eaf2 9abe 1c7f a8bc ec5e 98bd
00000190: 040b 203e 7c9f 70bc 2f01 1a3e 13cb 523e
000001a0: a756 473c ad24 b83e 1989 b13e 5abb 893e
000001b0: cf0a fabd 8144 4fbc 5c30 48be 3c17 7d3e
000001c0: 733b f6bd 5a01 18be 80e1 b6bd 9703 abbd
000001d0: c238 133c b499 85bc a683 9c3e 76fe 86be
000001e0: b98c 143c d383 d93c c198 26be 129c 8e3d
000001f0: b0d0 2e3d 2f76 1cbe 367d 1c3e 8fa5 68be
00000200: 68fd b3bd 88fc e43d 70fe 333d 4076 573e
00000210: bdb8 533d 423f 0bbe aeb1 243d 6f33 57be
00000220: 6757 7e3e f58a 6fbe 9ff3 2f3e fe93 7cbd
00000230: fdf1 e03d 3835 de3d d846 cebe 7b34 9f3d
00000240: 760d aa3d e9a3 d7bd 74e8 d23d 564d 343d
00000250: e1e5 39be 7207 c23c 6b58 1c3e 88d6 2cbe
00000260: 4f9f 873e 6edd d63d 4492 e83d 1b9e 873e
00000270: 87e5 86bd 4563 dfbd 8adf f43d 27a3 623e
00000280: 17d5 a2bd 85fa 543d b4a9 09be 7aea 63bb
00000290: d2c5 f6bd 8ac3 17bd 72a2 593d aa33 853d
000002a0: b5a2 853e 7616 b43e b39e c43e 343a c5bd
000002b0: d585 0e3d 05c8 4dbe be74 093e ee9b 9cbe
000002c0: 781e 723e 6ee8 843e c8b2 103d 6900 73be
000002d0: 8f11 d73d ad08 873d 74e7 713e c099 e4bc
000002e0: 487c 823d 2eb8 83bd 4e1a 3e3a 7530 2bbe
000002f0: a7c7 813d fc82 573d bd7c 6bbd 0610 95bd
00000300: c594 923e 1c87 033e d8c6 463e a71b 23bd
00000310: 36bd 44bd 9b11 83bd 5d40 98be 0b30 cd3d
00000320: 3df1 e53d 2e89 c53b 8764 e0bb 7667 14be
00000330: 9c79 18be 103e 3b3e e86d febd 5f09 96be
00000340: 1ff4 1bbe 38b5 ab3c 23fb 75bd 129b 333d
00000350: 88e4 2a3e 81c1 323e 4b71 f93c 401c b83d
00000360: 0c0e 25bd 2189 18be 36d1 83bc 2096 1dbe
00000370: 5bf3 acbd a259 33bd 0bc6 3a3e 8eaf 0dbe
00000380: ff9f 9abb c5f7 5c3e a679 cb3c 991f ba3d
00000390: 6a5b a6bc 2982 37be 1cd3 29be afa9 15bd
000003a0: cc8c c43c b37b 1d3e eeb5 033e f805 3abc
000003b0: 4702 853c c97d 35be 8121 2f3e 35e1 033e
000003c0: 3e42 bebc e9de 903e fe2f 853e 85a2 3b3e
000003d0: 56b8 093e 8614 0e3e 6d43 0e3e 87cd fe3d
000003e0: ad01 323d 8a3b ca3d f971 163e e27d 863e
000003f0: 948a 17bd b4c4 a63e 086b 3b3d fa69 a9be
-0.18791308 0.26224872 0.16990809 -0.2298019 0.32114157 -0.43735087 0.11322573 0.017731203
-0.19139281 -0.41634846 -0.21293525 -0.053518243 -0.20168583 -0.15699233 -0.044155493 -0.08346888
0.18226275 0.09236722 -0.19233654 -0.18023364 -0.24675563 -0.120412774 -0.1532383 -0.06271741
-0.0060719484 -0.0660828 -0.2834682 -0.06107331 0.20930953 0.18252812 0.25706372 -0.049411524
-0.26559833 -0.33933574 0.095014215 0.23209341 0.080265366 0.006952767 -0.15011707 0.037507664
0.05510448 -0.2682883 -0.18462941 0.011207609 -0.1909486 0.36457258 -0.18651308 -0.031717565
-0.079499915 -0.037690014 -0.005436174 -0.072813615 -0.09909545 -0.0648804 0.2254763 -0.0762365
-0.3646976 0.08503871 0.09907516 0.033170074 -0.13345769 -0.29318795 -0.11068353 -0.054610945
-0.28185156 0.026335847 0.17473537 -0.073235825 -0.15563315 -0.079590805 -0.18015164 -0.34266084
0.019594278 -0.020248158 -0.44018468 0.046471033 0.33909243 -0.053282592 -0.16115381 0.29369134
-0.13343857 0.08477579 -0.0058025746 -0.00498287 -0.20739697 -0.23231936 0.09339699 0.008283616
-0.10175999 0.19207583 0.111456625 -0.04317743 -0.28283066 0.011277805 -0.20229398 -0.024301708
-0.055124234 -0.30263454 -0.020568423 -0.0743998 0.15629202 -0.014686462 0.15039514 0.20585279
0.012166656 0.3596548 0.3467491 0.2690075 -0.12209093 -0.01265061 -0.19549698 0.24715894
-0.12023058 -0.14844266 -0.089297295 -0.08350294 0.0089857 -0.016308643 0.3056919 -0.26366013
0.009066754 0.026552116 -0.16269208 0.06963362 0.04267949 -0.15279458 0.15282139 -0.22719406
-0.08788568 0.11180979 0.043943822 0.21041203 0.051689852 -0.1359835 0.04020851 -0.21015714
0.24838029 -0.23392852 0.17182778 -0.061664574 0.109836556 0.108499944 -0.40288424 0.07773682
0.08303349 -0.1052931 0.10298243 0.044019066 -0.18154098 0.02368519 0.15268104 -0.16878712
0.2648873 0.10491453 0.11356023 0.26487812 -0.065867476 -0.10907606 0.11956699 0.2213255
-0.079508 0.051996727 -0.13443643 -0.003477721 -0.1204945 -0.037051715 0.053133436 0.06503995
0.26100698 0.35173386 0.38402328 -0.09630242 0.0347956 -0.20095833 0.1342344 -0.30587715
0.23644435 0.2595858 0.03532675 -0.23730625 0.10501396 0.06593452 0.23623449 -0.027905345
0.06371361 -0.06431614 0.00072518445 -0.16717704 0.06336909 0.05261515 -0.057492007 -0.07278447
0.28629127 0.12844509 0.1941179 -0.039821293 -0.048032008 -0.06399842 -0.29736605 0.10018929
0.11227653 0.006028316 -0.0068479213 -0.14492592 -0.1489014 0.18285394 -0.12423307 -0.29304025
-0.15229844 0.020960435 -0.060053956 0.04384906 0.1668874 0.17456628 0.03044953 0.08989763
-0.0402966 -0.1489606 -0.01609097 -0.153893 -0.08444854 -0.043786652 0.1823961 -0.138365
-0.00471878 0.21578892 0.02483828 0.09088058 -0.020307261 -0.17920746 -0.16584438 -0.036538776
0.023992918 0.15379219 0.1286237 -0.011353962 0.016236437 -0.17723764 0.17102624 0.12878878
-0.023224946 0.28295067 0.26013178 0.18323715 0.13449225 0.13875017 0.13892908 0.12441545
0.04345863 0.098746374 0.14691915 0.26267916 -0.036997393 0.32571948 0.04575637 -0.33088666

fc.bias f4 [10]
00000000: 5ebb 2fbe af84 88be d690 7c3e 2cb0 6b3d
00000010: 4095 c1bd 149c 5b3e e82e 9bbe 8e69 30bd
00000020: 94f1 94bd f5db 8c3e
-0.17161319 -0.2666373 0.24664626 0.057541057 -0.09452295 0.21446258 -0.30309224 -0.043069415
-0.0727264 0.27511564
